CNN/fashion_model.pth (torch, 69733 bytes, 10 tensors)

conv1.0.weight f4 [17, 1, 3, 3]
0	0x3e936cce	0.2879395
1	0x3d494147	0.04913452
2	0x3e112d53	0.14177446
3	0x3e71189e	0.23544547
4	0xbe77530f	-0.24152778
5	0x3e7a18b2	0.24423483
6	0xbe1b9ff9	-0.15197743
7	0x3d85325a	0.065037444
8	0x3de5be9c	0.112179965
9	0xbe74e9a8	-0.23917258
10	0x3be2fa7f	0.006926834
11	0xbea3a4a9	-0.31961563
12	0xbe2acebe	-0.16680428
13	0x3d5b80e9	0.053589735
14	0x3e8de688	0.27714944
15	0xbd914b12	-0.07094397
16	0xbd809446	-0.06278281
17	0xbdcf56fd	-0.101240136
18	0xbe99cd54	-0.30039465
19	0xbe45d616	-0.19319949
20	0xbe716ab2	-0.23575857
21	0xbe7cf14d	-0.24701424
22	0x3e9fc68c	0.31206167
23	0x3e382ed8	0.1798662
24	0xbe3492da	-0.17634144
25	0x3e912eed	0.28356114
26	0x3da393e7	0.079871945
27	0xbd7f4d15	-0.06232937
28	0x3e563302	0.20917895
29	0x3e2e475f	0.17019413
30	0xbce9595b	-0.02848499
31	0x3ba2f797	0.0049733627
32	0x3d06a243	0.03286959
33	0xbeb2c997	-0.34919426
34	0xbecdc9bf	-0.40192983
35	0xbea5d531	-0.32389215
36	0xbe9d0d4d	-0.3067421
37	0xbe9785f0	-0.29594374
38	0xbe1cf2b3	-0.15326957
39	0xbe477e6b	-0.19481818
40	0x3d2ffad9	0.042963836
41	0xbe2e4bc5	-0.17021091
42	0x3e2fe4e0	0.17177153
43	0x3eb37869	0.35052803
44	0x3ea55fb2	0.32299572
45	0xbdf82b3c	-0.12117621
46	0xbe8591bf	-0.26087758
47	0xbe8aaf8f	-0.27087066
48	0x3ec38ac4	0.38191807
49	0x3c244b2b	0.010027687
50	0xbdede487	-0.11615854
51	0x3e9f7eca	0.3115142
52	0x3e643bd1	0.22288443
53	0xbde1ce1d	-0.11025641
54	0xbb073660	-0.0020631775
55	0x3e9e9300	0.30971527
56	0xbe85d52d	-0.26139203
57	0x3c328216	0.010895273
58	0x3e622ca5	0.22087343
59	0xbd715306	-0.058917068
60	0x3e9f6686	0.31132907
61	0x3e21fb4d	0.1581852
62	0xbe9491e2	-0.2901755
63	0xbea91979	-0.33027247
64	0xbed7a541	-0.42118266
65	0x3d68d533	0.056843948
66	0xbe4587e3	-0.19290118
67	0xbe432ae0	-0.19059324
68	0xbaa20f85	-0.0012364244
69	0x3e2cf3d1	0.16889884
70	0x3df88d69	0.12136347
71	0xbd86f5fa	-0.06589885
72	0x3d7e7115	0.062119562
73	0xbe22c345	-0.15894802
74	0xbe110372	-0.1416147
75	0xbe98f729	-0.29876068
76	0x3da2caff	0.07948875
77	0xbe354e49	-0.17705645
78	0x3ea5f2eb	0.32411894
79	0xbe3814a5	-0.17976625
80	0xbe2b250a	-0.16713348
81	0x3e8a63ae	0.27029175
82	0x3eab4110	0.33448076
83	0xbd092340	-0.033480883
84	0x3e65da5a	0.22446576
85	0x3f0097fd	0.50231916
86	0x3d175672	0.036947675
87	0x3e33cacc	0.1755783
88	0x3f191aec	0.59806705
89	0xbd2c16d2	-0.04201395
90	0xbdc9e2fe	-0.098577484
91	0xbed1475f	-0.40874764
92	0x3abb3342	0.0014282244
93	0xbd8fe44d	-0.07025967
94	0xbea38fe3	-0.31945714
95	0x3d3e9d0d	0.046536494
96	0xbe82917d	-0.25501624
97	0xbd9037dc	-0.07041904
98	0xbe8f58fc	-0.27997577
99	0x3df4d99d	0.11955569
100	0x3f0d3586	0.55159795
101	0x3d001f4d	0.03127985
102	0x3e66a74f	0.2252476
103	0x3e151f7b	0.1456279
104	0x3f129d28	0.5727105
105	0x3e9423e1	0.28933623
106	0x3e532ea8	0.20623267
107	0x3edbe5f4	0.42948878
108	0x3ea646b6	0.32475823
109	0xbe2235c6	-0.15840825
110	0xbe956992	-0.29182106
111	0x3db2c695	0.08729283
112	0x3dbaf2e2	0.091283575
113	0xbe948510	-0.2900777
114	0xbe94ed40	-0.29087257
115	0xbea57ab7	-0.32320186
116	0x3e9f786e	0.31146568
117	0x3ea98e54	0.331164
118	0x3efecef6	0.49767274
119	0x3d90174d	0.07035694
120	0xbdb82444	-0.08991292
121	0x3e8f8ff4	0.28039515
122	0xbe420bf3	-0.18949871
123	0xbeac4f17	-0.3365409
124	0x3eb8eef5	0.3611981
125	0xbe052117	-0.13000904
126	0x3e651928	0.22372878
127	0xbd08faab	-0.03344218
128	0xbea1c7a6	-0.31597632
129	0x3d0ef79a	0.0349041
130	0xbe5ec256	-0.21753821
131	0x3e126dc7	0.14299689
132	0xbdf9c3a1	-0.121955164
133	0x3e4fd717	0.20296894
134	0x3dff6189	0.12469775
135	0xbe9ee2bd	-0.31032363
136	0xbf057237	-0.52127403
137	0xbf08ed12	-0.5348674
138	0x3c89c4af	0.016817419
139	0xbf00c6b1	-0.5030318
140	0xbf1452f2	-0.57939065
141	0x3ceb8440	0.028749585
142	0x3e4011c8	0.18756783
143	0xbd0ef759	-0.034903858
144	0x3e993115	0.2992026
145	0xbe5d72ea	-0.21625867
146	0xbcc2207e	-0.023697134
147	0x3dc42943	0.095781825
148	0xbea02abc	-0.31282604
149	0x3dfe14de	0.12406324
150	0xbdaa7b89	-0.08324344
151	0x3e5b6ce4	0.21428257
152	0xbe962dde	-0.2933187

conv1.0.bias f4 [17]
0	0xbdd67c53	-0.10472932
1	0xbe355cd0	-0.17711186
2	0x3dc26916	0.094927
3	0x3e71c084	0.23608595
4	0xbd549024	-0.051895276
5	0xbd664bde	-0.056224696
6	0xbe303d8d	-0.1721098
7	0x3e3201ea	0.17383543
8	0xbd0162c9	-0.03158835
9	0x3f0e06d5	0.55479175
10	0x3e80686c	0.25079668
11	0x3ec381ce	0.3818497
12	0xbe09ea83	-0.13468365
13	0xbe34be8c	-0.17650813
14	0xbe5684dd	-0.20949121
15	0x3ec3a971	0.3821521
16	0xbe70eba7	-0.23527394

conv1.2.weight f4 [17, 17, 3, 3]
0	0xbd673191	-0.056443755
1	0xbdbe07ee	-0.09278856
2	0x3d172a26	0.03690543
3	0x3dcf5b72	0.10124864
4	0xbd021ad4	-0.031763867
5	0xbc23df0d	-0.01000191
6	0x3dbd9d3a	0.09258504
7	0x3c0f6dd7	0.008754215
8	0x3c3365b1	0.010949538
9	0xbd971756	-0.07377498
10	0xbd94fa17	-0.07274263
11	0x3bb3d2bd	0.0054877684
12	0x3be2930f	0.0069145034
13	0x3d441d60	0.047879577
14	0xbd8a5465	-0.06754378
15	0xbcd6849a	-0.026186276
16	0x3d1c8227	0.03821006
17	0x3c36b39f	0.011151223
18	0xbd5ef0d0	-0.054428875
19	0xbdb0a3c0	-0.08624983
20	0xbd74a0ee	-0.059723787
21	0x3ccf3943	0.02529586
22	0x3d24cab9	0.040232394
23	0x3c94afb5	0.01815019
24	0xbd560f5f	-0.052260753
25	0x3d913e34	0.070919424
26	0x3d997640	0.074932575
27	0xbd00e4a8	-0.031468064
28	0xbc9697d1	-0.018382939
29	0x3d4a28db	0.04935537
30	0x3cbc87f2	0.023014043
31	0xbc2907d1	-0.010316805
32	0xbbb42c53	-0.005498448
33	0x3d040f44	0.03224112
34	0xbcb66dce	-0.022269156
35	0x3cdfde3b	0.027327647
36	0x3d96b563	0.073588155
37	0xbd85d7c7	-0.06535297
38	0x3d8b6906	0.06807141
39	0xbd84f4e2	-0.0649202
40	0x3d4d88a5	0.050179143
41	0x3d9d1aa2	0.076710954
42	0x3da1aa60	0.078938246
43	0x3c0383e1	0.008027048
44	0xbd627eb3	-0.05529661
45	0x3db2c59c	0.08729097
46	0x3b3ef692	0.0029138667
47	0x3db7bf45	0.08972029
48	0x3db26c6e	0.087120876
49	0x3dd6b65a	0.104839996
50	0x3d8795d5	0.06620375
51	0xbd681a05	-0.05666544
52	0xbccee4ed	-0.025255645
53	0x3bc1b9e0	0.0059120506
54	0x3da65476	0.081215784
55	0xbb1702f7	-0.0023042539
56	0x3d6fca9a	0.058542825
57	0xbd65ff1a	-0.056151487
58	0x3e167f91	0.146971
59	0xbd89f67b	-0.067364655
60	0x3d799498	0.060932726
61	0x3d3d4fd9	0.046218727
62	0x3d6fab55	0.058513004
63	0x3d4979da	0.049188472
64	0xbc70cf42	-0.014697852
65	0x3dae0858	0.08497685
66	0x3d33685f	0.043800708
67	0xbd60bf70	-0.05487007
68	0x3ca458ef	0.020061938
69	0x3d7dbdc5	0.061948556
70	0x3d117b76	0.035518132
71	0x3d7b69e5	0.061380286
72	0xbd8c0d81	-0.06838513
73	0xbca8e0a1	-0.020614924
74	0x3d26cf5e	0.040725105
75	0x3d86e6b6	0.06586973
76	0x3d49a5db	0.049230438
77	0xbd05d28c	-0.032671496
78	0xbd114e5b	-0.035475116
79	0x3cf0bfbc	0.029388301
80	0xbd6e3b27	-0.05816188
81	0x3de734cf	0.11289369
82	0x3dc8843c	0.09790847
83	0xbe2abad2	-0.16672829
84	0x3da95bcf	0.08269464
85	0x3d617c56	0.055050217
86	0xbe48d005	-0.19610603
87	0x3d1c4f3f	0.038161512
88	0x3e2f3ac2	0.17112258
89	0xbe1c5982	-0.1526852
90	0x3d434e59	0.04768214
91	0xbcda714e	-0.026665356
92	0xbc431391	-0.01190652
93	0xbba1ba66	-0.0049355505
94	0xbd84543a	-0.064613774
95	0x3d9ed914	0.07756248
96	0xbd2c3854	-0.042045906
97	0xbcf8a929	-0.0303541
98	0xbd4035e3	-0.04692639
99	0x3e0ad4a8	0.13557684
100	0x3c928b0f	0.017888574
101	0xbe0aab13	-0.13541822
102	0x3dc128f1	0.09431637
103	0xbdb08c15	-0.086204685
104	0xbd922ae5	-0.07137088
105	0x3e2e476e	0.17019436
106	0xbd56002c	-0.052246258
107	0xbdf67cb0	-0.12035501
108	0x3c021d2e	0.007941527
109	0xbc075d93	-0.008262056
110	0xbc9f5a38	-0.0194522
111	0xbc20ab17	-0.009806416
112	0x3d880b54	0.06642786
113	0xbd372746	-0.04471519
114	0xbcf5b0e8	-0.029991582
115	0xbc69d65f	-0.014272301
116	0x3ce7adac	0.028281055
117	0x3d07958f	0.033101615
118	0x3d8b5438	0.06803173
119	0xbd84c40c	-0.064827055
120	0x3d3680c0	0.04455638
121	0x3dd06bbc	0.10176799
122	0x3d378db5	0.044812877
123	0xbbabf9f9	-0.005248305
124	0x3d958626	0.073009774
125	0x3bf99787	0.0076169404
126	0x3d545a32	0.05184383
127	0xbcd27214	-0.025689162
128	0xbd2ee665	-0.04270019
129	0xba5cab5c	-0.00084178685
130	0x3cdc023b	0.026856532
131	0x3c5dc20c	0.013535034
132	0x3a3642a9	0.0006952682
133	0x3d3702f0	0.044680536
134	0xbd93ccde	-0.0721681
135	0x3ccd3d97	0.025053782
136	0xbd3fedf4	-0.04685779
137	0x3c145282	0.0090528745
138	0xbca5ebb3	-0.020253992
139	0x3c68c1ea	0.014206389
140	0x3da6ecd9	0.08150644
141	0x3d717231	0.058946792
142	0x3bc2a532	0.005940103
143	0x3d11764f	0.03551322
144	0xbca2ff9b	-0.019897273
145	0x3d8753dc	0.06607792
146	0x3d0bc292	0.034121104
147	0xbd478741	-0.048712973
148	0x3d700213	0.058595728
149	0x3d19d042	0.037552126
150	0x3d8f5d0b	0.070001684
151	0x3ce7059f	0.028200923
152	0xbd38a605	-0.045080204
153	0xbd004b9d	-0.03132211
154	0xbd041a17	-0.032251444
155	0x3cb32308	0.02186729
156	0xbbe86471	-0.0070920517
157	0xbd9759fa	-0.073902085
158	0xbcb0a32c	-0.021562181
159	0x3bd7fd3b	0.0065914667
160	0x3d788c84	0.06068088
161	0xbc418737	-0.011812023
162	0x3d756497	0.059910383
163	0xbd6aae6e	-0.057295255
164	0x3d5dc14d	0.054139424
165	0x3d283a2c	0.041071102
166	0x37d41086	2.5280064e-05
167	0x3c8cc053	0.017181551
168	0x3d7a9dd3	0.06118567
169	0x3d9788c4	0.07399133
170	0xbb4bd7c9	-0.003110396
171	0xbd86431c	-0.06555769
172	0x3c9c3729	0.019069271
173	0x3d73342e	0.059375934
174	0x3bf6b23a	0.0075285705
175	0xbd0b4da5	-0.034009594
176	0x3d9bfeb6	0.07616942
177	0x3d90406c	0.070435375
178	0xbd3b8161	-0.045777682
179	0xbd7d2b2c	-0.06180875
180	0x3d7a07a9	0.06104246
181	0x3d5e1d3f	0.05422711
182	0xbd259606	-0.040426277
183	0xbb3e1cbe	-0.002900883
184	0x3d3dce01	0.04633904
185	0xbd11a31e	-0.03555595
186	0x3d9d3e36	0.076778814
187	0xbd4f4de2	-0.050611384
188	0xbcebc443	-0.028780108
189	0xbc9143ae	-0.017732468
190	0xbd9962c7	-0.074895434
191	0xbd405785	-0.046958465
192	0x3ccc33b8	0.024927005
193	0xbd99b196	-0.07504575
194	0x3c12c0df	0.008957117
195	0x3d97d56c	0.07413754
196	0x3c240597	0.010011098
197	0xbd736c46	-0.05942943
198	0xbd057c0b	-0.032589
199	0xbd983fb3	-0.07434025
200	0x3bf6f1c4	0.007536145
201	0x3c9a5bfe	0.018842693
202	0x3d715796	0.05892142
203	0x3d852b51	0.065024026
204	0x3d132480	0.03592348
205	0x3c0ab221	0.008465321
206	0x3d5d6ca2	0.05405868
207	0xbcb7b14f	-0.022423415
208	0xbd5d1152	-0.053971596
209	0x3d19c6b1	0.037543003
210	0x3ccbff3e	0.024901982
211	0x3ca80148	0.020508423
212	0xbd98a635	-0.074535765
213	0x3da35fce	0.07977258
214	0x3c7bc70c	0.015367281
215	0x3bdf81eb	0.0068209074
216	0x3d6f10ee	0.058365755
217	0xbd6fa82f	-0.05851
218	0xbd6fb655	-0.058523495
219	0xbd953c3d	-0.0728688
220	0x3d7176c7	0.058951166
221	0xbd41c63f	-0.047308203
222	0xbd90abe7	-0.07064038
223	0xbd04fa49	-0.032465253
224	0xbd5e6fe5	-0.05430593
225	0xbd1b504e	-0.03791838
226	0x3d6f57bc	0.05843328
227	0xbd877620	-0.066143274
228	0x3c4f1f74	0.012641776
229	0x3c5556df	0.0130212
230	0x3c7f5a83	0.0155855445
231	0xbcaf2ada	-0.021382738
232	0x3b578135	0.003288341
233	0xbd06f89e	-0.032951944
234	0xbd8bc2d3	-0.06824269
235	0xbd9d3c5a	-0.07677527
236	0x3d310166	0.043214224
237	0x3d917280	0.07101917
238	0x3d977b2d	0.07396541
239	0xbd48d212	-0.049028464
240	0xbd59d32f	-0.053179916
241	0xbd6672da	-0.056261875
242	0x3cd02a48	0.025410786
243	0xbd256e47	-0.04038837
244	0x3d65fb6a	0.05614797
245	0xbd94edcf	-0.07271921
246	0x3d99f5f9	0.07517619
247	0x3d1a678f	0.037696417
248	0x3a99b7c5	0.0011727741
249	0xbd9dc26c	-0.07703099
250	0xbcd01ca1	-0.025404276
251	0xbd4da7b1	-0.05020875
252	0x3d5c8c12	0.05384452
253	0xbd66112f	-0.05616873
254	0xbd4df14a	-0.05027894
255	0xbd4f68e0	-0.050637126

conv1.2.bias f4 [17]
0	0x3c89d8b0	0.016826957
1	0xbd4ff99e	-0.050775163
2	0x3d330415	0.043705065
3	0x3dbaa025	0.091125764
4	0xbd38f548	-0.045155793
5	0x3de8fc40	0.11376238
6	0x3daa381c	0.08311483
7	0x3e158708	0.14602292
8	0x3d49aa0e	0.049234442
9	0xbcca53d3	-0.024698174
10	0x3b8c1aef	0.0042756717
11	0x3d66a6dd	0.056311477
12	0x3d9f7872	0.07786645
13	0x3cd0e11e	0.02549797
14	0x3d043b90	0.032283366
15	0x3dd7a459	0.10529394
16	0xbd14507b	-0.036209565

conv2.0.weight f4 [17, 17, 3, 3]
0	0xbd33873f	-0.043830153
1	0x3d2c66d5	0.042090256
2	0xbb605566	-0.003423059
3	0x3c1afdb8	0.009459905
4	0xbda40e86	-0.080105826
5	0xbd147f22	-0.036254056
6	0x3c158449	0.0091257775
7	0xbc229d5b	-0.009925212
8	0xbd72ff26	-0.05932536
9	0xbc2a473e	-0.010392962
10	0x3d68f174	0.056870893
11	0xbcf53760	-0.029933631
12	0xbcad9541	-0.021189334
13	0x3b25fa6f	0.0025326272
14	0xbc702d9d	-0.014659313
15	0x3d109529	0.0352985
16	0xbd709c3e	-0.058742754
17	0xbd95f53a	-0.07322164
18	0xbd1e565a	-0.03865657
19	0x3cb9155b	0.02259319
20	0x3cbf657d	0.023363823
21	0xbdbebca0	-0.09313321
22	0x3b20a8f1	0.002451476
23	0x3c897195	0.016777793
24	0x3ca9c794	0.02072505
25	0x3c21c705	0.00987411
26	0xbbba6291	-0.0056880196
27	0x3d119cc1	0.035549883
28	0xbc9da9a0	-0.019245923
29	0x3d698458	0.05701098
30	0x3c66b814	0.014081974
31	0x3d908159	0.07055921
32	0x3c260a1a	0.010134244
33	0x3c80e77a	0.015735377
34	0xbdabb1f1	-0.08383549
35	0xbc9e20cb	-0.019302746
36	0x3c49f19d	0.0123256715
37	0xbd893cca	-0.06701048
38	0xbb75bddd	-0.00374972
39	0x3d92ed13	0.071741246
40	0x3d5c849a	0.053837396
41	0x3d5dbedd	0.0541371
42	0x3d944934	0.07240525
43	0x3ce3702e	0.027763452
44	0x3d411e0a	0.047147788
45	0xbd44eccd	-0.048077393
46	0xbcf54672	-0.029940818
47	0x3d90d324	0.07071522
48	0xbcd34207	-0.02578832
49	0x3d369e90	0.04458481
50	0xbd5d527b	-0.054033738
51	0xbcef284d	-0.029194022
52	0xbd309021	-0.043106202
53	0x3cf016e7	0.029307796
54	0xbd63da8d	-0.05562835
55	0x3ce10541	0.027468326
56	0x3c870d49	0.016485827
57	0xbd993eca	-0.07482679
58	0x3d362d59	0.04447684
59	0xbd73520e	-0.059404425
60	0xbd19dfb4	-0.037566856
61	0xbd170319	-0.03686819
62	0xbbabb85d	-0.0052404837
63	0xbd87fcfc	-0.0664005
64	0xbd122925	-0.03568377
65	0xbcaf1ed0	-0.021376997
66	0x3d498cce	0.049206547
67	0xbd5fbcd3	-0.054623436
68	0xbd0e4ec5	-0.03474309
69	0x3d3ee0d2	0.046601124
70	0x3d6e57f9	0.058189366
71	0x3d6bf13d	0.05760311
72	0xbd7d7cad	-0.06188648
73	0xbd2e4071	-0.042541925
74	0x3d8bbe24	0.06823376
75	0xbd4d84f3	-0.05017562
76	0xbd967b6e	-0.07347761
77	0x3d860c69	0.06545336
78	0x3d3dcdb9	0.04633877
79	0xbdae07ca	-0.084975794
80	0x3dc43703	0.09580805
81	0x3c98625e	0.018601593
82	0xbd89ed21	-0.06734682
83	0x3db82fa6	0.08993463
84	0xbcb6761a	-0.022273112
85	0x3c071dbd	0.008246836
86	0xbd83634b	-0.06415423
87	0xbd161f8c	-0.03665118
88	0x3d7d8f50	0.06190425
89	0xbd5eac06	-0.054363273
90	0x3c5003d8	0.012696229
91	0xbd823765	-0.06358222
92	0xbd31b510	-0.043385565
93	0xbdab5ea7	-0.08367663
94	0x3cb1f24c	0.021721981
95	0x3dd3da7d	0.10344408
96	0xbdccb516	-0.09995477
97	0x3d9387f2	0.07203664
98	0xba705276	-0.0009167561
99	0xbd8f0e5c	-0.06985161
100	0x3daeaab5	0.085286535
101	0xbd5c2d43	-0.053754102
102	0xbd5dd776	-0.054160558
103	0x3db77dbe	0.0895953
104	0x3d8ed1f8	0.06973642
105	0xbd7f74a8	-0.06236711
106	0x3d5e60bd	0.054291476
107	0x3d0cb343	0.034350645
108	0x3beb8df1	0.0071885516
109	0x3b2dcb2f	0.0026518812
110	0x3d89a7d8	0.06721467
111	0xbd0140c3	-0.031555902
112	0xbd4ee735	-0.050513465
113	0x3da4b3d1	0.0804211
114	0xbc986395	-0.018602172
115	0x3ccd7601	0.025080683
116	0xbd443c64	-0.047909155
117	0x3c2f29ba	0.010691101
118	0x3d89080c	0.06690988
119	0x3cf7d900	0.03025484
120	0x3d1a0c37	0.037609305
121	0x3d891156	0.0669276
122	0x3cfc5b15	0.03080515
123	0xbdcf3e05	-0.10119251
124	0xbbbc62d4	-0.005749086
125	0xbcae4f88	-0.021278158
126	0x3c8732c5	0.016503701
127	0xbc9b0155	-0.018921534
128	0xbd16e70d	-0.03684144
129	0x3da3d0dc	0.07998821
130	0x3d34f85b	0.044182163
131	0x3d67534a	0.056475915
132	0xbd2be7b5	-0.04196902
133	0xbd4ada7e	-0.049524777
134	0x3a4364f6	0.0007453704
135	0xbca5cd7e	-0.020239588
136	0xbd04a4da	-0.032383777
137	0x3da747c0	0.08167982
138	0xbdc68493	-0.09693255
139	0xbd2451b6	-0.040116988
140	0x3da27d35	0.079340376
141	0xbc926608	-0.017870918
142	0xbc97985e	-0.018505272
143	0x3daca5e2	0.08430077
144	0xbd58be6d	-0.05291598
145	0xbd45e422	-0.048313268
146	0xbb68f505	-0.0035546434
147	0xbd0f95f2	-0.03505511
148	0x3d7557fd	0.059898365
149	0xbc20420e	-0.009781374
150	0xbd5e5cd9	-0.054287765
151	0xbd8e2738	-0.06941074
152	0x3d8fafec	0.07015976
153	0xbd2523cc	-0.04031734
154	0xbbe547c7	-0.006997082
155	0xbd0f2828	-0.034950405
156	0x3aa5ebe8	0.0012658807
157	0x3ce29cac	0.027662598
158	0xbd816510	-0.06318104
159	0xbd09bc2f	-0.03362673
160	0x3ca667e5	0.020313213
161	0x3d6a7646	0.0572417
162	0xbccb5879	-0.02482246
163	0xbd29d24c	-0.04146032
164	0xbabcede7	-0.0014414162
165	0x3d16ef87	0.036849525
166	0x3d10d342	0.03535772
167	0xbd9d9c37	-0.07695811
168	0xbd20ce75	-0.039259393
169	0x3d196203	0.037446987
170	0x3d85a190	0.06524956
171	0x3bea6b06	0.0071538715
172	0xbd08a4ae	-0.033360176
173	0x3e182611	0.14858271
174	0xbca325e5	-0.01991553
175	0xbddd4f1c	-0.108061045
176	0x3d18773c	0.037223086
177	0xbdcdaaab	-0.10042318
178	0xbd36dcc0	-0.044644117
179	0x3d5f6a6e	0.05454486
180	0x3c902e5c	0.01760023
181	0xbbaf92f1	-0.005358093
182	0xbd800c9c	-0.06252405
183	0x3d647108	0.055771858
184	0xbcd6ec8a	-0.026235837
185	0xbd5fd8c0	-0.05465007
186	0x3d092fb1	0.033492748
187	0xbbe41542	-0.006960542
188	0xbbe87e7c	-0.0070951562
189	0x3b5780f4	0.0032883259
190	0x3aca759f	0.0015446431
191	0x3d410e79	0.047132943
192	0xbda34c02	-0.07973482
193	0xbd4cc4c5	-0.04999234
194	0x3da03733	0.078230284
195	0xbd06f1d1	-0.032945458
196	0x3d7c7ce7	0.061642554
197	0x3d3b90f0	0.04579252
198	0xbc14cfd0	-0.0090827495
199	0x3d6fe834	0.058571056
200	0xbd05d301	-0.032671932
201	0x3d74cf88	0.05976823
202	0xbc989e3b	-0.018630138
203	0xbd1f125d	-0.038835872
204	0x3c18986f	0.009313687
205	0x3d8ecd7c	0.06972787
206	0xbd547923	-0.051873337
207	0xbdf84194	-0.12121883
208	0x3d0b5327	0.034014847
209	0x3da3a48b	0.079903685
210	0xbdb39ce6	-0.087701604
211	0x3c881a35	0.016614059
212	0x3cf7f9a5	0.030270407
213	0x3d3ade72	0.045622297
214	0x3cdd7055	0.027031103
215	0x3d810c63	0.06301191
216	0xbd1c8b38	-0.038218707
217	0x3df69c16	0.1204149
218	0x3ddca1f9	0.10773081
219	0x3d04e9d5	0.032449562
220	0xbd197d58	-0.037473053
221	0x3d65224b	0.055940907
222	0xbdfb418e	-0.12268363
223	0xbcb3ebce	-0.021963026
224	0x3cec26c9	0.028827088
225	0xbdcc320a	-0.09970482
226	0xbd88c771	-0.066786654
227	0x3e46a908	0.19400418
228	0xbd4bf618	-0.04979524
229	0x3c497667	0.012296296
230	0x3e26c70a	0.16286865
231	0xbd2177ce	-0.039420895
232	0xbdf6c202	-0.12048723
233	0x3bc9a1a0	0.0061533004
234	0xbdcdca1d	-0.10048316
235	0xbc83b128	-0.016075686
236	0x3e1c927a	0.15290251
237	0xbdeb0158	-0.11474866
238	0x3cc7bcb6	0.024381977
239	0xbc3d9f43	-0.0115736155
240	0xbda1dea7	-0.07903796
241	0xbc8f6d02	-0.017508034
242	0x3d8fab50	0.07015097
243	0xbe18d54f	-0.14925121
244	0x3d7b8c17	0.061412897
245	0x3e083263	0.13300471
246	0xbdd8775f	-0.10569643
247	0x3c6fe3f0	0.014641747
248	0x3de102c4	0.109868556
249	0xbd9d3426	-0.07675962
250	0xbdf52ec6	-0.11971812
251	0x3deaeafb	0.114706
252	0xbe223728	-0.15841353
253	0x3d358c28	0.044323117
254	0x3d3954a1	0.045246724
255	0xbdb597d5	-0.0886685

conv2.0.bias f4 [17]
0	0xbdb12319	-0.086492725
1	0x3c1d456e	0.009599073
2	0x3e12f844	0.14352518
3	0x3d0ea6b7	0.03482696
4	0x3df9566f	0.12174689
5	0x3e3bdcae	0.18345901
6	0x3df28fe7	0.118438534
7	0x3db65c71	0.089043505
8	0xbddd7f9f	-0.108153574
9	0x3e54606b	0.20739906
10	0xbca13682	-0.019679312
11	0x3d724ce3	0.059155356
12	0x3da3bdba	0.07995172
13	0x3d8bf10f	0.06833088
14	0x3dc3158c	0.09525594
15	0x3d1a43cc	0.037662312
16	0xbd3495f0	-0.044088304

conv2.2.weight f4 [17, 17, 3, 3]
0	0x3d805d97	0.06267851
1	0xbc2d39aa	-0.01057283
2	0x3d3fd2e6	0.046831988
3	0x3d3376ed	0.04381459
4	0xbd851df5	-0.064998545
5	0x3d45572c	0.048178837
6	0xbd9e8d0e	-0.07741748
7	0xbcba7c31	-0.022764297
8	0xbcc72fed	-0.024314845
9	0xbcb5a741	-0.02217448
10	0x3dc75322	0.09732653
11	0xbc7cdc55	-0.015433391
12	0x3d6c32fe	0.057665817
13	0xbbaf188a	-0.0053435015
14	0xbca33d48	-0.019926682
15	0x3d0850ea	0.03328029
16	0xbd8b3211	-0.06796659
17	0xbcacbbfc	-0.021085732
18	0xbd7de597	-0.061986532
19	0xbd9d0b68	-0.07668191
20	0xbd9f16e0	-0.07768035
21	0xbd9e715d	-0.07736466
22	0xbd7a5ca6	-0.061123513
23	0xbda64f48	-0.081205904
24	0x3cdeb43b	0.02718555
25	0xbd349b9f	-0.044093724
26	0xbca57031	-0.020195099
27	0x3d2abd83	0.04168464
28	0x3b31f0f0	0.0027151667
29	0xbd859fa4	-0.0652459
30	0xbd61cfce	-0.05512982
31	0xbd40fd49	-0.04711655
32	0x3d09602d	0.033538986
33	0xbda30a71	-0.07960976
34	0xbd04e924	-0.032448903
35	0x3ca16c52	0.019704971
36	0x3c2306d9	0.009950363
37	0x3db6b78a	0.08921726
38	0x3d9537a8	0.07286006
39	0xbc9a8044	-0.01885999
40	0x3b017494	0.0019753324
41	0x3d4f256f	0.05057281
42	0x3cff33c4	0.031152613
43	0x3d11c9da	0.03559289
44	0xbd8e0e20	-0.06936288
45	0xbd9236e2	-0.07139374
46	0xbd7276cc	-0.059195325
47	0xbd0d1382	-0.034442432
48	0xbcd02528	-0.025408342
49	0x3d3aa047	0.04556301
50	0x3d1cbe70	0.038267553
51	0xbd8d9e45	-0.06914953
52	0x3d581745	0.052756567
53	0xbcab2e38	-0.020896062
54	0x3cc058c2	0.023479823
55	0xbd9660b6	-0.07342665
56	0xbd9cee72	-0.07662667
57	0xbd99b97b	-0.07506081
58	0xbd9b6ae6	-0.07588749
59	0xbd818bf1	-0.0632552
60	0xbbb08fed	-0.005388251
61	0xbd07fd50	-0.033200562
62	0xbd89890d	-0.067155935
63	0x3d9b3be8	0.075797856
64	0xbd1c88a7	-0.03821626
65	0x3c73c592	0.014878647
66	0x3ba28be0	0.004960522
67	0x3d8b60ee	0.06805597
68	0x3cc51b88	0.02406098
69	0xbd33ac68	-0.04386559
70	0xbc8a9ead	-0.016921366
71	0x3d8de21e	0.06927894
72	0xbd919ccb	-0.07109984
73	0xbd0f5210	-0.03499037
74	0xbd92be6d	-0.07165227
75	0xbd34d1e1	-0.04414547
76	0x3c376c2d	0.011195225
77	0x3cfd8e71	0.03095171
78	0xbd59d71e	-0.053183667
79	0x3abd309e	0.0014434045
80	0xbd9dcc2b	-0.077049576
81	0xbd102caf	-0.035198864
82	0xbd3bc5a2	-0.045842774
83	0x3d997888	0.07493693
84	0xbd1d0e3c	-0.038343653
85	0xbd24dd1b	-0.040249925
86	0xbc8d40c7	-0.017242802
87	0x3d5337af	0.051566776
88	0xbd8020fd	-0.06256292
89	0x3cf1f50c	0.029535793
90	0x3d1d007e	0.038330548
91	0xbd493781	-0.0491252
92	0x3d9e236e	0.077216014
93	0xbd01bcc5	-0.031674165
94	0xbd93b1f6	-0.07211678
95	0xbcc89ce4	-0.024488874
96	0x3bc0a467	0.0058789733
97	0xbd5adcdf	-0.053433295
98	0xbd5379ef	-0.051629957
99	0x3d9c591b	0.07634183
100	0x3c39dbe0	0.011343926
101	0xbd673f85	-0.05645706
102	0x3a9ff287	0.0012203016
103	0xbd639d26	-0.05556979
104	0xbd8e579d	-0.06950305
105	0x3d9f78aa	0.07786687
106	0x3ce03c28	0.027372435
107	0x3d2a5305	0.04158308
108	0x3d567ff5	0.052368123
109	0x3d8f9a74	0.070118815
110	0x3d61006c	0.054932043
111	0xbc0f5b41	-0.008749784
112	0xbdaec625	-0.08533887
113	0x3d1163c2	0.035495527
114	0x3d88dfbf	0.06683301
115	0xbb2ebc79	-0.0026662631
116	0xbded8beb	-0.11598953
117	0x3cd2ed05	0.025747785
118	0xbd39f868	-0.045402914
119	0x3dad3315	0.08457009
120	0x3d97d9a7	0.07414561
121	0x3b83a33d	0.0040172623
122	0xbd530f9d	-0.05152856
123	0x3d78ad4b	0.06071214
124	0xbd541d19	-0.051785562
125	0x3d0a987a	0.03383682
126	0x3d1db828	0.038505703
127	0xbd659cc1	-0.056057695
128	0x3d697a07	0.05700114
129	0xbcfd76a3	-0.03094036
130	0xbd95912b	-0.07303079
131	0xbd695cd1	-0.056973282
132	0xbb9d1197	-0.0047933566
133	0xbcb8e349	-0.022569316
134	0x3d8f80af	0.07006966
135	0xbcb4062f	-0.021975605
136	0x3d251a3b	0.04030822
137	0xbc3d4b82	-0.011553647
138	0xbda3f2f1	-0.08005322
139	0xbc88443f	-0.016634105
140	0x3da6b2ce	0.08139573
141	0xbb936307	-0.004497889
142	0xbd1bc14a	-0.03802613
143	0x3d40a683	0.047033798
144	0x3da02df2	0.078212634
145	0x3d553fb2	0.052062698
146	0xbd185be9	-0.037197027
147	0xbd05c7f8	-0.03266141
148	0x3d9452bd	0.072423436
149	0xbd60fdf0	-0.054929674
150	0xbd5fe948	-0.054665834
151	0xbcf6c3c4	-0.030122645
152	0x3cf59835	0.029979805
153	0xbc8caadb	-0.017171314
154	0x3d611c17	0.05495843
155	0x3d36854d	0.04456072
156	0xbd786918	-0.0606471
157	0x3d426a33	0.04746456
158	0x3bc8cba6	0.0061277924
159	0xbdea508f	-0.114411466
160	0xbdbbc266	-0.09167938
161	0xbd9a7c70	-0.07543266
162	0xbde1c253	-0.110233925
163	0x3d5e207f	0.05423021
164	0x3cc6f4e8	0.024286702
165	0xbdb51941	-0.088427074
166	0x3bf85622	0.007578627
167	0xbe154828	-0.14578307
168	0x3d3535fa	0.04424093
169	0xbcdd5e65	-0.02702255
170	0xbc9d3094	-0.019188203
171	0xbe4c44a5	-0.19948061
172	0xbe1c5568	-0.15266955
173	0x3bae6fc2	0.005323381
174	0xbe07b796	-0.13253626
175	0xbc46ce84	-0.012134198
176	0x3e0a78ee	0.13522694
177	0xbe2e5b3c	-0.1702699
178	0x3d19e599	0.037572477
179	0x3d98e228	0.07465011
180	0xbdbd099f	-0.09230351
181	0xbddbe4b3	-0.1073698
182	0x3d869c0c	0.06572732
183	0xbc40baa4	-0.011763249
184	0x3d962545	0.07331327
185	0xbca6b622	-0.02035052
186	0x3e309344	0.17243677
187	0xbdf24d45	-0.11831144
188	0xbd691570	-0.05690521
189	0xbe1304c5	-0.14357288
190	0xbdb35b9b	-0.08757707
191	0xbcfc8767	-0.030826284
192	0xbd2f01ce	-0.04272633
193	0xbccaf9d3	-0.024777329
194	0x3e26f4b0	0.16304278
195	0x3d862067	0.06549149
196	0x3cb7d3fe	0.022439953
197	0x3cb675e1	0.022273006
198	0xbe1d94f2	-0.1538885
199	0xbd99f88f	-0.07518112
200	0x3dacf088	0.08444315
201	0xbe3cee62	-0.18450311
202	0xbd73c3c3	-0.059512865
203	0x3d4a6ed9	0.04942212
204	0xbcaf8b2d	-0.021428669
205	0x3c097038	0.008388571
206	0xbbee17e6	-0.0072660325
207	0xbda80612	-0.08204283
208	0xbd1ebb5a	-0.03875289
209	0x3dd55430	0.10416448
210	0xbddfef68	-0.10934335
211	0x3da8a263	0.08234098
212	0x3d60dd7c	0.054898724
213	0x3c8763ef	0.016527144
214	0x3dafd5e2	0.08585717
215	0xbd617ce9	-0.055050764
216	0x3cda5c7e	0.026655432
217	0x3cfb5ab3	0.030682897
218	0x3deeb312	0.11655249
219	0xbdba290b	-0.090898596
220	0xbd17c599	-0.03705368
221	0xbd045c63	-0.03231467
222	0x3d5e1680	0.054220676
223	0x3d5be122	0.0536815
224	0xbd1419e3	-0.0361575
225	0x3cf8df3c	0.030379884
226	0x3d5f28a6	0.054482125
227	0x3d76a3f4	0.06021495
228	0x3d67085f	0.056404468
229	0xbcc077d2	-0.023494635
230	0xbcd08c3b	-0.025457492
231	0xbd73ecca	-0.05955199
232	0xbc1cde91	-0.009574548
233	0xbd5410cf	-0.051773842
234	0x3e2738b2	0.16330221
235	0xbb6acfd1	-0.0035829435
236	0xbd98d9a0	-0.07463384
237	0x3db9a34c	0.090643495
238	0x3cf14d46	0.029455792
239	0x3b3294a7	0.0027249248
240	0x3d0fc6f0	0.03510183
241	0xbbb74c7d	-0.005593835
242	0x3bbcfec7	0.0057676765
243	0xbd2f301e	-0.042770498
244	0xbd5e6517	-0.054295626
245	0xbc78e0e5	-0.015190338
246	0xbd1ed1a3	-0.038774144
247	0xbdf1ea33	-0.11812248
248	0x3d6115c6	0.054952405
249	0x3cd926e9	0.026507812
250	0xbd7046a8	-0.058661133
251	0x3d2e8ddd	0.04261576
252	0x3d8c8e0f	0.06863033
253	0x3d362198	0.04446563
254	0x3d494847	0.049141195
255	0x3d8baf90	0.06820595

conv2.2.bias f4 [17]
0	0xbdb1a98e	-0.08674918
1	0x3d4d9bca	0.0501974
2	0xbdeb578f	-0.1149131
3	0x3c8ab691	0.016932758
4	0x3e846bca	0.25863487
5	0xbcb5e33d	-0.022203082
6	0x3da69c2d	0.08135257
7	0x3e89cb1c	0.26912773
8	0xbd8249bf	-0.06361722
9	0xbc9c86da	-0.019107271
10	0x3c27366e	0.010205848
11	0xbdba60ff	-0.09100532
12	0x3d99c8d4	0.07509008
13	0x3e9c5296	0.30531758
14	0xbd476cfa	-0.048687913
15	0xbd18a299	-0.03726444
16	0xbd94e450	-0.0727011

classifier.2.weight f4 [10, 833]
0	0x3c319dd8	0.010840856
1	0xbb66fe58	-0.0035246816
2	0x3c8df771	0.017329903
3	0x3c4e3822	0.012586625
4	0xbcac8c44	-0.021062978
5	0x3cb9271a	0.022601653
6	0xbc3af9ac	-0.0114120655
7	0xbd3c8581	-0.046025757
8	0x3c5e736a	0.013577322
9	0xbcd4c9ca	-0.025975127
10	0x3c58b0a1	0.013225705
11	0xbcfa7be4	-0.030576654
12	0xbd046dec	-0.032331392
13	0x3b6e360b	0.003634813
14	0x3bb3aa1a	0.005482924
15	0x3bd54f6f	0.0065097134
16	0x3c973285	0.018456707
17	0xbbbdf119	-0.0057965633
18	0x3cc7ad31	0.024374576
19	0xbc9166b4	-0.017749168
20	0xbd0dbfae	-0.034606628
21	0xbcd8e8ce	-0.026478197
22	0xbc3ae395	-0.011406799
23	0x3d0909dd	0.033456672
24	0xbc48794f	-0.0122359535
25	0xbca166b8	-0.0197023
26	0x3ce75e82	0.028243307
27	0xbca95a6f	-0.020673005
28	0xbc760a40	-0.015017092
29	0x3b932192	0.004490086
30	0x3a3ee3f8	0.0007281895
31	0xbcd64b77	-0.026159031
32	0xbc8ddaf7	-0.017316325
33	0xbc04abfa	-0.008097643
34	0x3d044af2	0.032298036
35	0x3c5c62e8	0.013451315
36	0x3cba2750	0.022723824
37	0xbb9cb8c5	-0.0047827684
38	0xbcf478e5	-0.029842803
39	0xbc3eb084	-0.011638764
40	0x3adf4c54	0.0017036297
41	0xbc1b8dd1	-0.009494261
42	0xbcd67c16	-0.026182216
43	0xbce331a3	-0.02773363
44	0xba4a7e8b	-0.0007724545
45	0x3cdf6d60	0.027273834
46	0xbbc61a2d	-0.006045601
47	0xbcea24b1	-0.028581949
48	0xbca2766d	-0.01983186
49	0x3c7b8c38	0.015353255
50	0x3cd37be3	0.02581591
51	0xbd669333	-0.056292724
52	0x3d49aea4	0.049238816
53	0x3d5a0e44	0.05323626
54	0x3db71b6d	0.08940778
55	0x3d6bb902	0.057549484
56	0x3e09f679	0.13472928
57	0x3d0b69b5	0.034036357
58	0x3c450e99	0.012027406
59	0xbc66ac55	-0.014079173
60	0x3d5afbd2	0.05346281
61	0x3db907d8	0.09034699
62	0xbc2d5d8a	-0.0105813835
63	0x3e1f5233	0.155587
64	0x3d985a30	0.07439077
65	0xbc85b205	-0.016320238
66	0xbd31cbd0	-0.04340726
67	0x3d5d82a4	0.054079667
68	0x3d665dfa	0.056241967
69	0xbd1af35f	-0.037829753
70	0x3d9856d4	0.07438436
71	0x3d31ede4	0.04343976
72	0xbcb8ee5c	-0.022574596
73	0xbd4a0f1c	-0.049330816
74	0x3d11bb53	0.035579037
75	0xbd0c09ee	-0.034189157
76	0xbd311eae	-0.04324215
77	0x3d3e12b7	0.046404567
78	0x3d1d80d9	0.038452957
79	0x3ca4476e	0.020053592
80	0xbd61b471	-0.055103723
81	0xbd8f46fd	-0.06995962
82	0xbd8419d9	-0.064502425
83	0xbdcb6bfa	-0.09932704
84	0xbd5ab696	-0.053396784
85	0xbc12f6d0	-0.0089699775
86	0x3c383c7d	0.01124489
87	0xbd503f1a	-0.05084143
88	0xbc1e7d85	-0.009673481
89	0xbd2756d5	-0.040854294
90	0xbcf6b2e4	-0.030114599
91	0xbdb928da	-0.09040995
92	0x3d492869	0.049110804
93	0x3c837277	0.016045792
94	0x3c4f38cd	0.01264782
95	0xbb8d870f	-0.0043190788
96	0xbd12cfa8	-0.035842568
97	0xbd1c5c13	-0.038173746
98	0xbc92596c	-0.017864905
99	0x3b471a6a	0.0030380734
100	0xb9e78946	-0.0004416203
101	0xbcb20285	-0.021729717
102	0xbc5c50c4	-0.01344699
103	0xbc1363ec	-0.008995991
104	0xbc9b4c5d	-0.018957311
105	0xbc088eab	-0.008334796
106	0xbd8e6567	-0.06952935
107	0x3d396e6e	0.04527133
108	0x3cd08c13	0.025457418
109	0xbcc7212b	-0.024307808
110	0x3afd0d83	0.0019306395
111	0x3bc5e2d1	0.0060390015
112	0x3c084598	0.008317374
113	0x3cd08737	0.0254551
114	0x3c099500	0.008397341
115	0x3d170d3d	0.03687786
116	0x3d45cad4	0.048289135
117	0x3d923405	0.07138828
118	0x3d32aa4f	0.04361945
119	0x3ddf1ef5	0.108945765
120	0x3d084f60	0.033278823
121	0xbc73b67e	-0.0148750525
122	0x3d21356d	0.03935759
123	0xbcf7b420	-0.030237257
124	0x3d50076e	0.050788336
125	0x3ce8e41c	0.028429084
126	0x3c73b6cb	0.014875124
127	0xbc6b772e	-0.014371676
128	0x3c94da45	0.018170485
129	0x3caaeb71	0.02086422
130	0xbd5bf843	-0.053703558
131	0x3a19c664	0.00058660493
132	0xbc6dd777	-0.014516703
133	0x3c3fa0e2	0.011696072
134	0x3c9f39cc	0.01943674
135	0xbc07dd34	-0.008292485
136	0x3bc0fcc1	0.0058895056
137	0xbbb91e9c	-0.005649401
138	0x3b122966	0.0022302507
139	0xbcfda537	-0.03096257
140	0xbc488dc9	-0.012240835
141	0xbceccdf1	-0.028906794
142	0xbcf7ea2a	-0.030263025
143	0xbd0a66ac	-0.03378932
144	0xbcbda81f	-0.023151455
145	0xbbb39e5f	-0.005481526
146	0x3c7ab2c8	0.015301414
147	0x3b8ec97d	0.0043575154
148	0x3c901798	0.017589375
149	0x3a8f13bb	0.0010915914
150	0xbd1b7921	-0.037957314
151	0x3de49552	0.11161293
152	0x3b8187f8	0.0039529763
153	0xbc3330ea	-0.010936955
154	0x3dc422e9	0.09576971
155	0x3dbcdb10	0.0922147
156	0xbda99d2b	-0.082819305
157	0xbd8108ce	-0.063005075
158	0x3be96ac1	0.0071233218
159	0x3d8e568b	0.069501005
160	0x3c0b1c32	0.008490609
161	0x3dfe172b	0.12406763
162	0x3c4bdabe	0.012442289
163	0xbdc0066f	-0.09376227
164	0xbd910b8c	-0.070822805
165	0x3c9effe7	0.019409133
166	0x3d97f66a	0.07420047
167	0xbc127fb8	-0.008941583
168	0x3d4138a6	0.047173165
169	0x3c909b23	0.0176521
170	0x3d961162	0.07327534
171	0xbd5c523d	-0.053789366
172	0xbcf03fa1	-0.029327216
173	0x3dae852d	0.08521495
174	0x3a2d1a66	0.000660336
175	0xbc10cb3e	-0.008837519
176	0x3d554b86	0.052073978
177	0x3cee4844	0.029087193
178	0xbde6a493	-0.11261859
179	0xbd2a532f	-0.041583236
180	0x3da3df93	0.08001628
181	0xbca366a0	-0.019946396
182	0xbd09768f	-0.033560332
183	0x3d8542fd	0.065069176
184	0xbe0e0cf8	-0.13872135
185	0xbdf28da2	-0.118434206
186	0xbd4f1b62	-0.050563224
187	0xbc8a8d0a	-0.016912956
188	0x3cb701b3	0.022339677
189	0xbcdb7555	-0.026789347
190	0x3d60fdb7	0.05492946
191	0xbe07d00b	-0.13262956
192	0xbdb78f3b	-0.08962866
193	0xbd6cba58	-0.0577949
194	0xbd88d44d	-0.06681118
195	0x3d08587c	0.03328751
196	0xbd90f809	-0.07078559
197	0xbda84ca8	-0.08217746
198	0xbc5f2cae	-0.013621492
199	0xbd157777	-0.036490884
200	0x3c88ce5e	0.016699966
201	0xbcb92eb5	-0.02260528
202	0xbc725edd	-0.014793125
203	0xbd3db598	-0.04631576
204	0x3cc07edf	0.023497997
205	0x3ce43b81	0.027860405
206	0xbc55dbd7	-0.013052902
207	0xbd66d867	-0.05635872
208	0x3bf9737b	0.0076126433
209	0x3d2ed7c4	0.04268624
210	0xbd7fa00a	-0.062408485
211	0x3d503ec3	0.050841104
212	0xbd21a104	-0.039460197
213	0xbc591b43	-0.013251129
214	0xbd29e16d	-0.04147475
215	0x3c385223	0.011250052
216	0x3d6da851	0.058021847
217	0x3cba7d9d	0.022764975
218	0x3dc14ad9	0.09438104
219	0x3d093fff	0.033508297
220	0x3cb5b5a6	0.022181343
221	0x3dabc8bb	0.08387896
222	0x3ca4bae8	0.020108655
223	0x3cc1e2bd	0.023667688
224	0x3d8e489e	0.069474444
225	0x3d902db6	0.07039969
226	0xbc883a17	-0.016629262
227	0xbc1e0981	-0.009645821
228	0x3c9c9d6c	0.019118033
229	0x3c51417c	0.01277196
230	0x3d30dd63	0.04317988
231	0x3c82db07	0.015973581
232	0x3d4b3306	0.049609207
233	0x3cc1810b	0.023621103
234	0xbd0c48bd	-0.034249056
235	0x3b75438e	0.00374243
236	0x3d1f65a3	0.038915288
237	0x3ca1cfa1	0.019752325
238	0x3d3a511d	0.045487512
239	0xbbe2bd51	-0.006919541
240	0x3b197b78	0.002341954
241	0xbd91a90f	-0.071123235
242	0xbd71437c	-0.05890225
243	0x3cb804bb	0.022463193
244	0xbd35b4fc	-0.044362053
245	0x3c6cdab5	0.014456441
246	0xbc2fd5b7	-0.010732106
247	0x3be29f18	0.006915938
248	0x3cdc4df4	0.02689264
249	0x3ce9c5d8	0.028536722
250	0xbcb4e88e	-0.022083547
251	0x3c891925	0.016735623
252	0x3c792427	0.015206373
253	0xbb1b291c	-0.0023675626
254	0xbc000524	-0.007813726
255	0x3cff55f3	0.031168913

classifier.2.bias f4 [10]
0	0x3d6eed1b	0.05833159
1	0xbca3fe6d	-0.02001878
2	0x3df92299	0.12164802
3	0xbca71a14	-0.020398177
4	0xbe7eb7c9	-0.24874796
5	0x3dde299f	0.10847782
6	0x3daa9f45	0.083311595
7	0xbb3e6e73	-0.0029057532
8	0xbd51f2cb	-0.051256936
9	0xbdf18d4e	-0.1179453
